…
2025-06-23 17:54:55 | ------------------------------------------------------------------------------------------------------
2025-06-23 17:54:55 | Initializing the ANN model...
2025-06-23 17:54:55 | ------------------------------------------------------------------------------------------------------
2025-06-23 17:54:55 | Input dimension for ANN model: 10002
2025-06-23 17:54:55 | 
----------------------------------------------------------------
        Layer (type)               Output Shape         Param #
================================================================
            Linear-1                 [-1, 1000]      10,003,000
              ReLU-2                 [-1, 1000]               0
           Dropout-3                 [-1, 1000]               0
            Linear-4                  [-1, 100]         100,100
              ReLU-5                  [-1, 100]               0
           Dropout-6                  [-1, 100]               0
            Linear-7                    [-1, 1]             101
================================================================
Total params: 10,103,201
Trainable params: 10,103,201
Non-trainable params: 0
----------------------------------------------------------------
Input size (MB): 0.04
Forward/backward pass size (MB): 0.03
Params size (MB): 38.54
Estimated Total Size (MB): 38.60
----------------------------------------------------------------

2025-06-23 17:54:55 | ------------------------------------------------------------------------------------------------------
…
