…
2025-06-24 22:00:10 | Initializing the CNN model...
2025-06-24 22:00:10 | ------------------------------------------------------------------------------------------------------
2025-06-24 22:00:10 | Input channel for CNN model: 1
2025-06-24 22:00:10 | ca_int_dim for CNN model: 1
2025-06-24 22:00:10 | dL_dim for CNN model: 1
2025-06-24 22:00:10 | 
==========================================================================================
Layer (type:depth-idx)                   Output Shape              Param #
==========================================================================================
CNNModel                                 [32, 1]                   --
├─ModuleList: 1-1                        --                        --
│    └─Sequential: 2-1                   [32, 10, 50, 50]          --
│    │    └─Conv2d: 3-1                  [32, 10, 100, 100]        170
│    │    └─ReLU: 3-2                    [32, 10, 100, 100]        --
│    │    └─MaxPool2d: 3-3               [32, 10, 50, 50]          --
│    │    └─Dropout: 3-4                 [32, 10, 50, 50]          --
│    └─Sequential: 2-2                   [32, 10, 25, 25]          --
│    │    └─Conv2d: 3-5                  [32, 10, 50, 50]          1,610
│    │    └─ReLU: 3-6                    [32, 10, 50, 50]          --
│    │    └─MaxPool2d: 3-7               [32, 10, 25, 25]          --
│    │    └─Dropout: 3-8                 [32, 10, 25, 25]          --
│    └─Sequential: 2-3                   [32, 10, 12, 12]          --
│    │    └─Conv2d: 3-9                  [32, 10, 25, 25]          1,610
│    │    └─ReLU: 3-10                   [32, 10, 25, 25]          --
│    │    └─MaxPool2d: 3-11              [32, 10, 12, 12]          --
│    │    └─Dropout: 3-12                [32, 10, 12, 12]          --
│    └─Sequential: 2-4                   [32, 10, 6, 6]            --
│    │    └─Conv2d: 3-13                 [32, 10, 12, 12]          1,610
│    │    └─ReLU: 3-14                   [32, 10, 12, 12]          --
│    │    └─MaxPool2d: 3-15              [32, 10, 6, 6]            --
│    │    └─Dropout: 3-16                [32, 10, 6, 6]            --
│    └─Sequential: 2-5                   [32, 10, 3, 3]            --
│    │    └─Conv2d: 3-17                 [32, 10, 6, 6]            1,610
│    │    └─ReLU: 3-18                   [32, 10, 6, 6]            --
│    │    └─MaxPool2d: 3-19              [32, 10, 3, 3]            --
│    │    └─Dropout: 3-20                [32, 10, 3, 3]            --
├─Sequential: 1-2                        [32, 100]                 --
│    └─Linear: 2-6                       [32, 1000]                93,000
│    └─ReLU: 2-7                         [32, 1000]                --
│    └─Dropout: 2-8                      [32, 1000]                --
│    └─Linear: 2-9                       [32, 100]                 100,100
│    └─ReLU: 2-10                        [32, 100]                 --
│    └─Dropout: 2-11                     [32, 100]                 --
├─Linear: 1-3                            [32, 1]                   101
==========================================================================================
Total params: 199,811
Trainable params: 199,811
Non-trainable params: 0
Total mult-adds (M): 230.86
==========================================================================================
Input size (MB): 1.28
Forward/backward pass size (MB): 34.34
Params size (MB): 0.80
Estimated Total Size (MB): 36.42
==========================================================================================
…
